,Unnamed: 0,Unnamed: 0.1,Unnamed: 0.1.1,Epochs,Batch_Size,Loss_Func,Optimizer,Early_Stop_Monitor,Early_Stop_Patience,Min_Loss,Mean_Loss,Final_Loss,Min_Val_Loss,Mean_Val_Loss,Final_Val_Loss,Model
0,0,0,,5,64,binary_crossentropy,adam,val_auc,2,0.159085,0.252836,0.159085,0.37324,0.514875,0.504278,"'Model: ""sequential""', '_________________________________________________________________', 'Layer (type)                 Output Shape              Param #   ', '=================================================================', 'conv2d (Conv2D)              (None, 298, 298, 8)       224       ', '_________________________________________________________________', 'fire_module (fire_module)    (None, 298, 298, 16)      550       ', '_________________________________________________________________', 'max_pooling2d (MaxPooling2D) (None, 99, 99, 16)        0         ', '_________________________________________________________________', 'fire_module_1 (fire_module)  (None, 99, 99, 32)        2156      ', '_________________________________________________________________', 'max_pooling2d_1 (MaxPooling2 (None, 33, 33, 32)        0         ', '_________________________________________________________________', 'fire_module_2 (fire_module)  (None, 33, 33, 48)        4962      ', '_________________________________________________________________', 'max_pooling2d_2 (MaxPooling2 (None, 11, 11, 48)        0         ', '_________________________________________________________________', 'fire_module_3 (fire_module)  (None, 11, 11, 64)        8920      ', '_________________________________________________________________', 'max_pooling2d_3 (MaxPooling2 (None, 3, 3, 64)          0         ', '_________________________________________________________________', 'conv2d_1 (Conv2D)            (None, 3, 3, 1)           65        ', '_________________________________________________________________', 'global_average_pooling2d (Gl (None, 1)                 0         ', '=================================================================', 'Total params: 16,877', 'Trainable params: 16,877', 'Non-trainable params: 0', '_________________________________________________________________'"
1,0,,,6,32,binary_crossentropy,adam,val_auc,2,0.155858,0.227065,0.155858,0.42918,0.551633,0.75262,"'Model: ""sequential""', '_________________________________________________________________', 'Layer (type)                 Output Shape              Param #   ', '=================================================================', 'conv2d (Conv2D)              (None, 298, 298, 8)       224       ', '_________________________________________________________________', 'fire_module (fire_module)    (None, 298, 298, 16)      550       ', '_________________________________________________________________', 'max_pooling2d (MaxPooling2D) (None, 99, 99, 16)        0         ', '_________________________________________________________________', 'fire_module_1 (fire_module)  (None, 99, 99, 32)        2156      ', '_________________________________________________________________', 'max_pooling2d_1 (MaxPooling2 (None, 33, 33, 32)        0         ', '_________________________________________________________________', 'fire_module_2 (fire_module)  (None, 33, 33, 48)        4962      ', '_________________________________________________________________', 'max_pooling2d_2 (MaxPooling2 (None, 11, 11, 48)        0         ', '_________________________________________________________________', 'fire_module_3 (fire_module)  (None, 11, 11, 64)        8920      ', '_________________________________________________________________', 'max_pooling2d_3 (MaxPooling2 (None, 3, 3, 64)          0         ', '_________________________________________________________________', 'conv2d_1 (Conv2D)            (None, 3, 3, 1)           65        ', '_________________________________________________________________', 'global_average_pooling2d (Gl (None, 1)                 0         ', '=================================================================', 'Total params: 16,877', 'Trainable params: 16,877', 'Non-trainable params: 0', '_________________________________________________________________'"
0,,,,8,64,binary_crossentropy,adam,val_auc,2,0.321137,0.404746,0.321137,0.439776,0.482319,0.454159,"'Model: ""sequential""', '_________________________________________________________________', 'Layer (type)                 Output Shape              Param #   ', '=================================================================', 'conv2d (Conv2D)              (None, 298, 298, 8)       224       ', '_________________________________________________________________', 'fire_module (fire_module)    (None, 298, 298, 16)      550       ', '_________________________________________________________________', 'max_pooling2d (MaxPooling2D) (None, 99, 99, 16)        0         ', '_________________________________________________________________', 'fire_module_1 (fire_module)  (None, 99, 99, 32)        2156      ', '_________________________________________________________________', 'max_pooling2d_1 (MaxPooling2 (None, 33, 33, 32)        0         ', '_________________________________________________________________', 'conv2d_1 (Conv2D)            (None, 33, 33, 1)         33        ', '_________________________________________________________________', 'global_average_pooling2d (Gl (None, 1)                 0         ', '=================================================================', 'Total params: 2,963', 'Trainable params: 2,963', 'Non-trainable params: 0', '_________________________________________________________________'"
