"","Epochs","Batch_Size","Loss_Func","Optimizer","Early_Stop_Monitor","Early_Stop_Patience","Min_Loss","Mean_Loss","Final_Loss","Min_Val_Loss","Mean_Val_Loss","Final_Val_Loss","Model"
"0","7","64","binary_crossentropy","adam","val_auc","2","0.329924","0.417362","0.329924","0.604442","0.675597","0.609965","'Model: ""sequential_1""', '_________________________________________________________________', 'Layer (type)                 Output Shape              Param #   ', '=================================================================', 'conv2d_2 (Conv2D)            (None, 298, 298, 8)       224       ', '_________________________________________________________________', 'fire_module_3 (fire_module)  (None, 298, 298, 16)      550       ', '_________________________________________________________________', 'max_pooling2d_3 (MaxPooling2 (None, 99, 99, 16)        0         ', '_________________________________________________________________', 'fire_module_4 (fire_module)  (None, 99, 99, 32)        2156      ', '_________________________________________________________________', 'max_pooling2d_4 (MaxPooling2 (None, 33, 33, 32)        0         ', '_________________________________________________________________', 'fire_module_5 (fire_module)  (None, 33, 33, 48)        4962      ', '_________________________________________________________________', 'max_pooling2d_5 (MaxPooling2 (None, 11, 11, 48)        0         ', '_________________________________________________________________', 'conv2d_3 (Conv2D)            (None, 11, 11, 1)         49        ', '_________________________________________________________________', 'global_average_pooling2d_1 ( (None, 1)                 0         ', '=================================================================', 'Total params: 7,941', 'Trainable params: 7,941', 'Non-trainable params: 0', '_________________________________________________________________'"
"1","20","64","binary_crossentropy","adam","val_auc","2","0.289337","0.364366","0.289337","0.497511","0.714647","0.497511","'Model: ""sequential_1""', '_________________________________________________________________', 'Layer (type)                 Output Shape              Param #   ', '=================================================================', 'conv2d_2 (Conv2D)            (None, 298, 298, 8)       224       ', '_________________________________________________________________', 'fire_module_4 (fire_module)  (None, 298, 298, 16)      550       ', '_________________________________________________________________', 'max_pooling2d_4 (MaxPooling2 (None, 99, 99, 16)        0         ', '_________________________________________________________________', 'fire_module_5 (fire_module)  (None, 99, 99, 32)        2156      ', '_________________________________________________________________', 'max_pooling2d_5 (MaxPooling2 (None, 33, 33, 32)        0         ', '_________________________________________________________________', 'fire_module_6 (fire_module)  (None, 33, 33, 48)        4962      ', '_________________________________________________________________', 'max_pooling2d_6 (MaxPooling2 (None, 11, 11, 48)        0         ', '_________________________________________________________________', 'conv2d_3 (Conv2D)            (None, 11, 11, 1)         49        ', '_________________________________________________________________', 'global_average_pooling2d_1 ( (None, 1)                 0         ', '=================================================================', 'Total params: 7,941', 'Trainable params: 7,941', 'Non-trainable params: 0', '_________________________________________________________________'"
"2","8","64","binary_crossentropy","adam","val_auc","2","0.222017","0.329341","0.222017","0.535885","0.783744","0.936091","'Model: ""sequential""', '_________________________________________________________________', 'Layer (type)                 Output Shape              Param #   ', '=================================================================', 'conv2d (Conv2D)              (None, 298, 298, 8)       224       ', '_________________________________________________________________', 'fire_module (fire_module)    (None, 298, 298, 16)      550       ', '_________________________________________________________________', 'max_pooling2d (MaxPooling2D) (None, 99, 99, 16)        0         ', '_________________________________________________________________', 'fire_module_1 (fire_module)  (None, 99, 99, 32)        2156      ', '_________________________________________________________________', 'max_pooling2d_1 (MaxPooling2 (None, 33, 33, 32)        0         ', '_________________________________________________________________', 'fire_module_2 (fire_module)  (None, 33, 33, 48)        4962      ', '_________________________________________________________________', 'max_pooling2d_2 (MaxPooling2 (None, 11, 11, 48)        0         ', '_________________________________________________________________', 'fire_module_3 (fire_module)  (None, 11, 11, 24)        2728      ', '_________________________________________________________________', 'max_pooling2d_3 (MaxPooling2 (None, 3, 3, 24)          0         ', '_________________________________________________________________', 'conv2d_1 (Conv2D)            (None, 3, 3, 1)           25        ', '_________________________________________________________________', 'global_average_pooling2d (Gl (None, 1)                 0         ', '=================================================================', 'Total params: 10,645', 'Trainable params: 10,645', 'Non-trainable params: 0', '_________________________________________________________________'"
"3","4","32","binary_crossentropy","adam","val_auc","2","0.17883","0.291093","0.17883","0.53651","0.697848","0.814333","'Model: ""sequential""', '_________________________________________________________________', 'Layer (type)                 Output Shape              Param #   ', '=================================================================', 'conv2d (Conv2D)              (None, 298, 298, 8)       224       ', '_________________________________________________________________', 'fire_module (fire_module)    (None, 298, 298, 16)      550       ', '_________________________________________________________________', 'max_pooling2d (MaxPooling2D) (None, 99, 99, 16)        0         ', '_________________________________________________________________', 'fire_module_1 (fire_module)  (None, 99, 99, 32)        2156      ', '_________________________________________________________________', 'max_pooling2d_1 (MaxPooling2 (None, 33, 33, 32)        0         ', '_________________________________________________________________', 'fire_module_2 (fire_module)  (None, 33, 33, 48)        4962      ', '_________________________________________________________________', 'max_pooling2d_2 (MaxPooling2 (None, 11, 11, 48)        0         ', '_________________________________________________________________', 'fire_module_3 (fire_module)  (None, 11, 11, 32)        6302      ', '_________________________________________________________________', 'max_pooling2d_3 (MaxPooling2 (None, 3, 3, 32)          0         ', '_________________________________________________________________', 'conv2d_1 (Conv2D)            (None, 3, 3, 1)           33        ', '_________________________________________________________________', 'global_average_pooling2d (Gl (None, 1)                 0         ', '=================================================================', 'Total params: 14,227', 'Trainable params: 14,227', 'Non-trainable params: 0', '_________________________________________________________________'"
"4","6","32","binary_crossentropy","adam","val_auc","2","0.255509","0.321099","0.255509","0.579017","0.725397","0.810686","'Model: ""sequential""', '_________________________________________________________________', 'Layer (type)                 Output Shape              Param #   ', '=================================================================', 'conv2d (Conv2D)              (None, 298, 298, 8)       224       ', '_________________________________________________________________', 'fire_module (fire_module)    (None, 298, 298, 16)      550       ', '_________________________________________________________________', 'max_pooling2d (MaxPooling2D) (None, 99, 99, 16)        0         ', '_________________________________________________________________', 'fire_module_1 (fire_module)  (None, 99, 99, 32)        2156      ', '_________________________________________________________________', 'max_pooling2d_1 (MaxPooling2 (None, 33, 33, 32)        0         ', '_________________________________________________________________', 'fire_module_2 (fire_module)  (None, 33, 33, 48)        4962      ', '_________________________________________________________________', 'max_pooling2d_2 (MaxPooling2 (None, 11, 11, 48)        0         ', '_________________________________________________________________', 'conv2d_1 (Conv2D)            (None, 11, 11, 1)         49        ', '_________________________________________________________________', 'global_average_pooling2d (Gl (None, 1)                 0         ', '=================================================================', 'Total params: 7,941', 'Trainable params: 7,941', 'Non-trainable params: 0', '_________________________________________________________________'"
"5","8","64","binary_crossentropy","adam","val_auc","2","0.145911","0.233091","0.145911","0.697841","0.947421","0.849507","'Model: ""sequential""', '_________________________________________________________________', 'Layer (type)                 Output Shape              Param #   ', '=================================================================', 'conv2d (Conv2D)              (None, 298, 298, 8)       224       ', '_________________________________________________________________', 'fire_module (fire_module)    (None, 298, 298, 16)      550       ', '_________________________________________________________________', 'max_pooling2d (MaxPooling2D) (None, 99, 99, 16)        0         ', '_________________________________________________________________', 'fire_module_1 (fire_module)  (None, 99, 99, 32)        2156      ', '_________________________________________________________________', 'max_pooling2d_1 (MaxPooling2 (None, 33, 33, 32)        0         ', '_________________________________________________________________', 'fire_module_2 (fire_module)  (None, 33, 33, 48)        4962      ', '_________________________________________________________________', 'max_pooling2d_2 (MaxPooling2 (None, 11, 11, 48)        0         ', '_________________________________________________________________', 'fire_module_3 (fire_module)  (None, 11, 11, 64)        7813      ', '_________________________________________________________________', 'max_pooling2d_3 (MaxPooling2 (None, 2, 2, 64)          0         ', '_________________________________________________________________', 'conv2d_1 (Conv2D)            (None, 2, 2, 1)           65        ', '_________________________________________________________________', 'global_average_pooling2d (Gl (None, 1)                 0         ', '=================================================================', 'Total params: 15,770', 'Trainable params: 15,770', 'Non-trainable params: 0', '_________________________________________________________________'"
"6","8","64","binary_crossentropy","adam","val_auc","2","0.412865","0.452493","0.412865","0.657985","0.738039","0.775968","'Model: ""sequential""', '_________________________________________________________________', 'Layer (type)                 Output Shape              Param #   ', '=================================================================', 'conv2d (Conv2D)              (None, 298, 298, 8)       224       ', '_________________________________________________________________', 'fire_module (fire_module)    (None, 298, 298, 16)      550       ', '_________________________________________________________________', 'max_pooling2d (MaxPooling2D) (None, 99, 99, 16)        0         ', '_________________________________________________________________', 'fire_module_1 (fire_module)  (None, 99, 99, 32)        2156      ', '_________________________________________________________________', 'max_pooling2d_1 (MaxPooling2 (None, 33, 33, 32)        0         ', '_________________________________________________________________', 'conv2d_1 (Conv2D)            (None, 33, 33, 1)         33        ', '_________________________________________________________________', 'global_average_pooling2d (Gl (None, 1)                 0         ', '=================================================================', 'Total params: 2,963', 'Trainable params: 2,963', 'Non-trainable params: 0', '_________________________________________________________________'"